data.pth (torch, 6186 bytes, 6 tensors)

l1.weight f4 [8, 69]
0	0xbccf297b	-0.025288334
1	0xbe7fcddc	-0.24980873
2	0x3e5d0ec1	0.2158766
3	0xbd9eef6b	-0.07760509
4	0x3ed6753a	0.41886312
5	0x3ef0bcd3	0.4701906
6	0xbe500762	-0.20315316
7	0x3ec4475e	0.383357
8	0x3ea3c683	0.3198739
9	0x3edbacc8	0.4290526
10	0x3e4e2ec4	0.20135027
11	0x3e096799	0.13418426
12	0x3f28599c	0.65761733
13	0x3d840fe3	0.06448343
14	0x3e1305c4	0.14357668
15	0x3dae1e56	0.0850188
16	0x3c674909	0.014116534
17	0xbf12a8d7	-0.5728888
18	0xbd0b5379	-0.034015153
19	0x3c840caa	0.01611932
20	0x3cf4a7bb	0.029865136
21	0x3ee052d3	0.4381319
22	0xbead2e38	-0.33824325
23	0xbe0a6e61	-0.13518669
24	0x3f3cdc95	0.7377408
25	0xbdcdf68f	-0.10056793
26	0x3f426887	0.75940746
27	0x3f3cb4e3	0.7371351
28	0x3e92977a	0.28631192
29	0x3e984c03	0.29745492
30	0x3d4bac8a	0.049725093
31	0x3ec9054b	0.3926185
32	0xbe3fdf3e	-0.18737504
33	0xbf11c365	-0.56938773
34	0xbe5afa8a	-0.21384636
35	0xbe36837f	-0.178236
36	0xbe728169	-0.23682179
37	0xbe67490f	-0.22586463
38	0x3dc6df99	0.097106166
39	0x3e778852	0.24173096
40	0xbd2af8e9	-0.041741285
41	0x3d6face9	0.05851451
42	0xbe887757	-0.2665355
43	0xbd7de9c7	-0.061990526
44	0x3ea68111	0.32520345
45	0x3e7e2ac5	0.24821003
46	0x3ecdea6f	0.4021792
47	0xbec1172a	-0.37712985
48	0xbe882b7a	-0.2659567
49	0xbd3cadda	-0.046064235
50	0xbe042749	-0.12905611
51	0xbe5daade	-0.21647212
52	0xbd0e4c27	-0.034740593
53	0x3dc390a8	0.09549075
54	0xbe174ea1	-0.14776088
55	0x3eaa3f70	0.33251524
56	0x3bf93a8d	0.0076058568
57	0xbe53e6f5	-0.20693572
58	0xbd69292b	-0.056924026
59	0x3eaaa3f8	0.33328223
60	0xbd792767	-0.060828593
61	0xbf12a99f	-0.5729007
62	0xbf12b0bd	-0.5730093
63	0xbe820947	-0.25397703
64	0xba7e54a2	-0.00097019423
65	0xbf097876	-0.53699434
66	0xbbac851b	-0.005264891
67	0x3e36f8bf	0.17868327
68	0x3e8f25b2	0.27958447
69	0xbe1c053d	-0.15236373
70	0x3e48025e	0.19532153
71	0x3eb64045	0.3559591
72	0xbe2efbb7	-0.17088209
73	0x3eb67f29	0.3564389
74	0x3ec3ebae	0.38265747
75	0xbc4356a0	-0.0119225085
76	0x3e7f8f4f	0.24957012
77	0x3ee92f18	0.45543742
78	0x3ef1de7d	0.47240058
79	0x3e83bbdb	0.2572926
80	0x3ea0ce46	0.31407374
81	0x3f146b7c	0.5797651
82	0xbeb2a5a9	-0.34892014
83	0x3f0425a4	0.51619935
84	0xbe98fe22	-0.29881388
85	0x3ddf8904	0.109148055
86	0x3f08bd2b	0.5341365
87	0x3cf510fb	0.029915323
88	0xbe2db71d	-0.16964383
89	0xbe750834	-0.2392891
90	0x3ebfd63e	0.3746814
91	0x3db19630	0.08671224
92	0x3d09e003	0.0336609
93	0x3f160e5e	0.5861567
94	0xbe6e75d3	-0.23287134
95	0x3ef225b4	0.4729439
96	0x3f1d73f0	0.6150503
97	0xbcc0cc8f	-0.023535041
98	0x3e7ab96b	0.24484794
99	0x3c9ddcc6	0.019270312
100	0x3e9d3263	0.30702505
101	0x3c302ab1	0.010752366
102	0x3f3458de	0.704481
103	0x3cc10d66	0.02356596
104	0x3ddbf90f	0.107408635
105	0xbc28246c	-0.01026259
106	0xbe919f77	-0.28441975
107	0xbdb9f8bd	-0.09080646
108	0x3ebaf6ab	0.36516318
109	0x3e88c641	0.26713756
110	0xbeb72d41	-0.35776713
111	0xbdcde5d5	-0.100536026
112	0x3b9014a4	0.004396992
113	0x3eb646c2	0.3560086
114	0x3e9a0f0c	0.30089605
115	0x3ee1dbcd	0.44113007
116	0x3d8b78c9	0.06810147
117	0x3d68cff2	0.056838937
118	0xbcc63cc0	-0.02419889
119	0x3d9094ac	0.07059607
120	0xbd8bb8c7	-0.06822353
121	0xbe42a779	-0.19009198
122	0x3deb02f4	0.11475173
123	0x3e6e3195	0.23261102
124	0x3e6e98d4	0.23300487
125	0x3ebf5baf	0.37374637
126	0xbf30ce5e	-0.6906489
127	0xbe8d7a86	-0.2763254
128	0x3e6f431c	0.23365444
129	0x3dd04468	0.101692975
130	0xbedf5943	-0.4362279
131	0xbee24fa0	-0.44201374
132	0xbe8de592	-0.2771421
133	0xbe891fe7	-0.26782152
134	0xbe977e88	-0.29588723
135	0x3eaca844	0.33722126
136	0x3eb34988	0.35017037
137	0x3e0110f0	0.12604117
138	0x3f03a14d	0.51418
139	0x3f3401d7	0.7031531
140	0xbefc6559	-0.49296072
141	0x3ebf2861	0.37335494
142	0x3e80f68c	0.251881
143	0xbe7aad5b	-0.24480192
144	0xbee3a2c2	-0.44460112
145	0xbe55d9a0	-0.20883799
146	0xbe5949c1	-0.21219541
147	0xbef57ec5	-0.4794828
148	0xbee50d45	-0.44736686
149	0xbe7b13a5	-0.24519213
150	0x3e1b1751	0.15145613
151	0xbe9647f1	-0.29351762
152	0xbe328eb4	-0.1743725
153	0xbeee0b0f	-0.46492812
154	0x39c6e641	0.00037937055
155	0x3f6b83df	0.91998094
156	0xbe0282da	-0.12745228
157	0x3e9491eb	0.29017577
158	0xbdd58072	-0.104248896
159	0x3e257d29	0.16161026
160	0xbefb497b	-0.490795
161	0xbe0a7fce	-0.13525316
162	0x3e93d7bb	0.28875527
163	0x3f0341ec	0.51272464
164	0x3e968654	0.2939936
165	0x3e79f68c	0.24410456
166	0x3d9461c5	0.072452106
167	0xbb6b1463	-0.0035870306
168	0xbe126ac5	-0.14298542
169	0x3e7d7556	0.24751791
170	0xbe886a42	-0.26643568
171	0x3f8246c4	1.0177846
172	0xbeafeb61	-0.34359267
173	0x3f117006	0.5681156
174	0xbe99efc4	-0.3006574
175	0x3df957f4	0.12174979
176	0x3d7b73e7	0.06138983
177	0xbec75e89	-0.38939312
178	0x3f01a2d6	0.5063909
179	0xbe4a0529	-0.19728531
180	0x3ef9e96b	0.48810896
181	0xbe8d01de	-0.27540487
182	0xbeacbb50	-0.33736658
183	0xbe927f19	-0.28612593
184	0xbe8928ad	-0.26788846
185	0xbedd1f65	-0.43188015
186	0x3e887804	0.26654065
187	0x3c9dab70	0.019246787
188	0xbe0df280	-0.13862038
189	0xbe92388f	-0.28558776
190	0xbe9995b1	-0.29997018
191	0xbeb1d51e	-0.34732908
192	0x3ebddc1f	0.37082002
193	0xbedbd1e2	-0.42933565
194	0x3ed289da	0.41120797
195	0x3f50c5dd	0.81551915
196	0x3ea81504	0.32828534
197	0x3dddda19	0.108326145
198	0xbd3d8aaa	-0.04627482
199	0x3e9f4e3b	0.31114373
200	0x3eac5842	0.33661085
201	0x3e61678f	0.2201216
202	0xbe68ed03	-0.22746663
203	0xbdb4b9d9	-0.0882451
204	0xbf0e0cc5	-0.55488235
205	0xbe6f6dce	-0.23381731
206	0x3d79aec5	0.06095769
207	0x3e542572	0.20717409
208	0x3e17e255	0.14832433
209	0xbe9e1639	-0.3087633
210	0x3eab845d	0.33499423
211	0xbe5af0a0	-0.21380854
212	0xbc36f39b	-0.0111664785
213	0x3e94c8f8	0.29059577
214	0xbe52fba6	-0.20603809
215	0xbe57e73b	-0.21084301
216	0xbe9071b6	-0.28211755
217	0xbe929e0d	-0.28636208
218	0xbe25081c	-0.16116375
219	0xbeb299b4	-0.3488289
220	0x3d929d48	0.07158905
221	0x3d8ee821	0.06977869
222	0xbdb43fd2	-0.08801235
223	0x3f0f3426	0.5593895
224	0xbe95b7d4	-0.29241812
225	0x3d9a7064	0.07540968
226	0x3edab14d	0.42713395
227	0xbc855ba6	-0.016279053
228	0xbce8ce51	-0.028418692
229	0x3eb9d4ce	0.3629517
230	0x3e2b8490	0.16749787
231	0xbeef3a0f	-0.46723983
232	0x3e801b3e	0.25020784
233	0xbefb9c02	-0.49142462
234	0xbefe4352	-0.49660736
235	0xbeb14e17	-0.3462989
236	0x3e0ccbd6	0.13749632
237	0x3dc16687	0.09443384
238	0xbe66a845	-0.22525127
239	0x3e1f6344	0.1556521
240	0xbe4bad2b	-0.19890277
241	0x3e845e08	0.2585299
242	0xbbce00de	-0.0062867245
243	0x3eb108f8	0.34577155
244	0x3f0aae91	0.5417262
245	0xbad47eb5	-0.0016212078
246	0xbebf8afa	-0.37410718
247	0x3d73dc50	0.05953628
248	0x3deca584	0.11555007
249	0x3ef0be02	0.47019964
250	0x3e4c2366	0.19935378
251	0xbea3b23e	-0.31971925
252	0xbe5b224e	-0.21399805
253	0xbdb3c196	-0.08777158
254	0x3eddfed3	0.43358478
255	0x3efc8fb6	0.49328393

l1.bias f4 [8]
0	0x3f12a9b2	0.57290184
1	0x3f295c76	0.6615671
2	0x3f8009c8	1.0002985
3	0x3efe401c	0.49658287
4	0x3f4fa3e6	0.81109464
5	0x3ee07bb8	0.4384439
6	0x3ef6f0ba	0.48230535
7	0x3f461bd4	0.7738621

l2.weight f4 [8, 8]
0	0x3fa7f87d	1.3122708
1	0x3f5df10d	0.8669594
2	0xbf407c32	-0.75189507
3	0xbe2dbed2	-0.16967323
4	0x3ef6861f	0.481492
5	0xbea4bdd3	-0.32176074
6	0x3f9d55a4	1.229176
7	0xbe8e6b25	-0.2781612
8	0xbf668a8d	-0.9005516
9	0xbf2a9fae	-0.666499
10	0x3e0c1c39	0.13682641
11	0x3fb2eaef	1.3977946
12	0x3f51b36e	0.8191441
13	0x3f9f1cad	1.2430626
14	0xbebffb19	-0.3749626
15	0x3f1ca700	0.6119232
16	0x3e05a1cf	0.13050006
17	0xbeceb470	-0.40372038
18	0x3f369e4a	0.7133528
19	0x3f4fd8d0	0.81190205
20	0x3fa714b0	1.3053188
21	0x3f7c7b85	0.98625976
22	0xbe1e5516	-0.15462145
23	0x3f7ea707	0.99473614
24	0x3f81c86c	1.0139289
25	0x3f8d21ea	1.1025975
26	0x3f1cd1f7	0.6125788
27	0xbf3ab76d	-0.72936136
28	0x3eaec792	0.34136635
29	0xbf45aa4b	-0.7721297
30	0x3f29ee23	0.6637899
31	0xbd932047	-0.07183891
32	0xbeb220ec	-0.34790742
33	0x3ee84c6c	0.45370805
34	0x3fbebba9	1.4901019
35	0x3f19021d	0.5976885
36	0x3f5c1557	0.8597006
37	0xbf32408c	-0.6962974
38	0xbef7ab83	-0.4837304
39	0x3f39e790	0.7261896
40	0x3f11c6e3	0.569441
41	0xbf5aae1b	-0.85421914
42	0x3e7cdde0	0.24694014
43	0xbdcbb023	-0.09945705
44	0xbe8d4839	-0.27594164
45	0xbec4046d	-0.38284627
46	0x3ed3b076	0.41345567
47	0x3fc06d82	1.5033419
48	0x3f480d47	0.7814526
49	0x3fa683f7	1.3009022
50	0x3e0b978c	0.1363203
51	0xbf0b2089	-0.5434652
52	0x3f708a2b	0.9396083
53	0xbe3ef7a7	-0.1864916
54	0x3f4aa257	0.7915396
55	0xbf0afaa7	-0.54288715
56	0x3f596294	0.84916043
57	0x3f89bca9	1.07607
58	0xbf65da41	-0.89786154
59	0xbe9f18cd	-0.3107361
60	0xbd8d90f6	-0.06912415
61	0x3f2c235f	0.6724147
62	0x3f9e0925	1.2346541
63	0x3ed79aef	0.42110392

l2.bias f4 [8]
0	0x3cb7a99a	0.02241974
1	0x3ec2e25d	0.38063326
2	0x3f114403	0.567444
3	0x3edc2cc0	0.43002892
4	0x3f5e4f07	0.86839336
5	0x3e933d1b	0.28757557
6	0x3ef21e19	0.47288588
7	0x3e9e1a42	0.30879408

l3.weight f4 [10, 8]
0	0x3ecfbc0c	0.40573156
1	0xbfb7e635	-1.4367129
2	0x3e410f85	0.18853576
3	0x3f32b36c	0.69805026
4	0xbc118d97	-0.008883855
5	0x3f4fea7f	0.8121719
6	0x3efcfe12	0.4941259
7	0x3ddd6152	0.10809578
8	0x3c33f539	0.010983759
9	0xbe427edb	-0.18993704
10	0xbe82d860	-0.25555706
11	0xbd0c1ffa	-0.034210183
12	0xbe3b6165	-0.18298872
13	0xbdabdb9e	-0.08391498
14	0x3e370378	0.17872417
15	0xbdb7e19f	-0.08978581
16	0xbf2273cf	-0.6345796
17	0x3e886351	0.26638272
18	0x3e5f641a	0.2181553
19	0x3e1fcfe6	0.1560665
20	0x3f0ae01f	0.5424823
21	0x3f9f7460	1.245739
22	0xbfe5be25	-1.7948653
23	0xbf4de354	-0.80425
24	0x3d789a72	0.060694166
25	0x3d980b0c	0.07423982
26	0x3c80bddc	0.015715532
27	0x3dd4fa39	0.10399289
28	0xbdb1d99e	-0.08684085
29	0x3ca5ed79	0.020254837
30	0x3daa5fb8	0.08319038
31	0xbe2c590e	-0.16830847
32	0xbd38c390	-0.045108378
33	0xbda8ab00	-0.08235741
34	0x3e382d11	0.17985941
35	0xbe6605ad	-0.22463103
36	0xbeaed135	-0.34143987
37	0xbe91ed4d	-0.2850136
38	0x3e389892	0.18026951
39	0xbea687a1	-0.32525352
40	0xbf8eaaeb	-1.114591
41	0x3f44ce5a	0.7687737
42	0x3f4a0ade	0.7892283
43	0xbf88b014	-1.0678735
44	0x3ee1330a	0.43984252
45	0xbfc6386b	-1.5485967
46	0xbf32c662	-0.6983396
47	0xbf834388	-1.0254984
48	0xbe37e7bc	-0.17959493
49	0x3a74d89f	0.00093401404
50	0x3dc8748d	0.09787855
51	0xbd6f4622	-0.058416493
52	0xbea5d1ff	-0.32386777
53	0xbe7e0d3a	-0.24809733
54	0xbc3ba276	-0.011452308
55	0x3e2914c5	0.16511829
56	0x3f3e1ef5	0.74265987
57	0xbf09a876	-0.53772676
58	0xbfa10b79	-1.2581626
59	0x3f2269e9	0.63442856
60	0xbfab8c9e	-1.3402288
61	0xbf364c18	-0.7120986
62	0x3f48672e	0.7828244
63	0x3f62e63e	0.8863257
64	0xbe4acf8b	-0.19805734
65	0x3e3601ed	0.17774172
66	0x3ebbb6d8	0.36662936
67	0xbf6560cc	-0.89600825
68	0xbf6a45c9	-0.91512734
69	0x3f66c40a	0.9014288
70	0xbeed3089	-0.46326092
71	0x3f16a15a	0.5883995
72	0xbf9f57da	-1.2448685
73	0xbf4fe776	-0.81212556
74	0x3d97c026	0.07409696
75	0x3f3059bb	0.6888692
76	0x3f9470d9	1.1596938
77	0xbfc4b92c	-1.536901
78	0x3f1a851b	0.6035935
79	0xbfbdde73	-1.4833511

l3.bias f4 [10]
0	0x3dc2efdf	0.09518408
1	0xbea970dc	-0.33093917
2	0x3e156783	0.14590268
3	0xbec9d38a	-0.39419204
4	0xbee04d35	-0.43808904
5	0x3e90f286	0.2831003
6	0xbeb79870	-0.35858488
7	0x3e3175ce	0.17330095
8	0x3e4a67de	0.19766185
9	0x3f1faca1	0.62372786
