data.pth (torch, 5418 bytes, 6 tensors)

l1.weight f4 [8, 54]
000000 88 fd bc 3e c0 d4 c7 3e 4a 8f c8 3d a6 24 6b 3d
       0.3691218 0.39029503 0.09792955 0.057407998
000010 cc fd fa be 6a 53 20 3f 74 e9 13 3d c3 8b e9 3d
       -0.49021757 0.6262728 0.03611131 0.114036106
000020 7f 95 46 3e 49 21 0c 3e aa 16 ee bd 1b ac 9c 3e
       0.19392966 0.13684572 -0.116254166 0.30600056
000030 49 82 f8 3e 3a c1 c4 3e e2 8d f9 3e 14 11 2a 3e
       0.485369 0.3842867 0.4874106 0.16608077
000040 75 b2 7a bd 79 e4 04 3f a5 7f ba 3d b8 a3 ab be
       -0.061205346 0.5191112 0.091063775 -0.33523345
000050 49 c7 5b 3e b8 87 b9 be b1 1b ad be 3b 18 41 be
       0.2146274 -0.36236358 -0.3381019 -0.188569
000060 23 d5 4c 3e d7 e8 a6 bd 5d 5b 1c 3d 3e 86 25 3f
       0.2000318 -0.081498794 0.03817307 0.6465796
000070 0c 10 70 3d c3 a2 89 3e fa 51 8e 3e d2 3c 9a 3e
       0.058609053 0.2688199 0.27796918 0.30124527
000080 c5 85 da 3d 09 5e b2 3c d1 69 14 3f cf 1a ed 3d
       0.10670046 0.021773355 0.57973963 0.11577379
000090 40 24 5d 3d 32 d8 20 3e 46 d0 e1 3c 55 2b 43 3e
       0.05398965 0.15707472 0.027565133 0.19059499
0000a0 39 dd f6 3e 87 97 07 bd 2e a5 b4 3e 76 ae 07 3f
       0.48215654 -0.033103492 0.35282272 0.5300058
0000b0 1c 44 c5 3e 0f 09 e4 3e 5d 4a bd 3e 4d 84 d8 3e
       0.38528526 0.4453816 0.36970797 0.42288437
0000c0 66 ba 88 bd b5 96 d0 3d 19 67 87 bd 87 8b 0d 3d
       -0.06676178 0.10184995 -0.06611461 0.03455689
0000d0 28 6b e9 3d f1 4f c0 3e 13 57 d7 3d 29 c7 5f be
       0.113973916 0.3756099 0.10514655 -0.21853317
0000e0 73 b9 51 3e bc 33 18 be 04 4e 4a 3b 40 14 66 3f
       0.204809 -0.14863485 0.0030869255 0.8987465
0000f0 b2 b8 fc 3d 09 09 ea 3b 4a 7f cc 3e 1a 1d a1 3c
       0.12339915 0.0071421904 0.39940864 0.019667197
000100 3c 66 54 be 9e 2f 41 3e 61 b6 39 3e 64 ca 3a 3e
       -0.20742124 0.18865821 0.18135978 0.18241268
000110 bb c3 13 be cd 94 98 3d f7 86 94 be 42 9e 85 3f
       -0.14430134 0.074502565 -0.2900922 1.0438921
000120 c2 91 2d 3e 0e 3e c6 be a0 4c d1 bd 4d 00 ac be
       0.16950133 -0.3871922 -0.10219693 -0.3359398
000130 0f a4 bc be 5d 29 a5 be 38 d5 e2 3c dd 76 97 be
       -0.36843917 -0.3225812 0.027689561 -0.29582873
000140 d2 ab 77 3e f7 48 96 be 8e 57 b2 3e a8 35 b6 be
       0.24186638 -0.29352543 0.34832424 -0.3558781
000150 58 8b 20 3f 3e 7d 04 3e 8a d8 fe 3d 17 2e 2e 3e
       0.6271262 0.12938401 0.12443645 0.1700977
000160 e5 53 23 be 19 72 e4 3c 57 03 d1 3e 8e 93 b1 3e
       -0.15949972 0.027886437 0.4082286 0.34682888
000170 56 c1 f6 3d 7a 13 12 3e 46 72 16 3f 82 9b 12 3e
       0.12048595 0.14265242 0.5876812 0.14317134
000180 7b 83 50 3e 3b 52 01 be ee 79 61 3e 26 a0 90 bd
       0.20362656 -0.12629025 0.22019169 -0.07061796
000190 d5 f9 98 3e 61 51 c9 bd 53 5d 43 3d 76 5e 87 3e
       0.29878107 -0.09829975 0.047696423 0.26439255
0001a0 b8 13 5c bd a3 1e bc 3d ca 49 37 3d 34 e9 40 3e
       -0.053729743 0.09185531 0.044748105 0.1883896
0001b0 e8 66 fc bd a6 aa 08 3e 20 e4 50 3c 48 21 22 3d
       -0.12324315 0.13346347 0.012749702 0.03958252
0001c0 00 ce 86 3c b7 ec a1 3d 3e 17 ca 3d 44 9b ab 3d
       0.01645565 0.07906478 0.09867714 0.08379224
0001d0 d9 2c b6 3d 82 1a 92 3d 54 13 d6 bd c6 b5 ce bd
       0.08895273 0.07133962 -0.10452905 -0.10093264
0001e0 c2 d8 97 bd da b2 1b be 74 a6 c4 3d f0 c6 13 3d
       -0.0741439 -0.15204945 0.09602061 0.036078393
0001f0 00 48 c8 3d b2 0c 85 3d 1f d1 a9 bd 9c 2b 93 bc
       0.09779358 0.06496562 -0.0829184 -0.01796513
000200 18 09 4c bd 69 b5 ac bd 16 be 90 3d cf 30 12 3c
       -0.04981336 -0.08433039 0.07067506 0.00892277
000210 e0 d0 a0 3c e8 37 05 be b8 de cf bc 55 34 d2 bd
       0.01963085 -0.13009608 -0.025374755 -0.10263888
000220 c6 f1 ba 3d 58 cf 3a 3d 40 65 0a be 45 a1 df 3d
       0.09128146 0.045607895 -0.13515186 0.109194316
000230 20 8a ea 3c 0c d6 a9 3d 8a 64 73 bd d4 9c fc 3d
       0.028630316 0.08292779 -0.059422053 0.123346
000240 80 a0 95 3b 39 62 4a 3d 20 a5 bd 3d 29 37 04 be
       0.004566252 0.04941008 0.09260011 -0.12911667
000250 f4 fd e5 bd 2f 6e 03 be fd 39 8a 3d 0c f4 f0 bc
       -0.11230078 -0.12835 0.06749342 -0.029413246
000260 0d 6e 84 3c 63 a8 9e bd 17 c8 fe bd 20 87 a3 3d
       0.016165758 -0.07746961 -0.12440508 0.079847574
000270 f0 18 d8 bd 10 4a 01 be df d8 83 bd 9c 30 ed bc
       -0.105516315 -0.12625909 -0.06437849 -0.028953843
000280 4f a0 da bd 1b 05 b4 bd b6 c2 11 be 3e 46 e2 3e
       -0.10675108 -0.08790036 -0.14234433 0.44194216
000290 97 bd 35 be bb c8 43 3d ff ae a4 3e c2 f7 ef be
       -0.17748104 0.047798853 0.3216476 -0.46868712
0002a0 c1 d2 ff 3d 1e 8d 9e bd ed 71 75 3e 3c 6d 43 be
       0.1249137 -0.0774176 0.2396924 -0.19084638
0002b0 92 0a 5f 3e a0 e5 89 bd 2b 8a cf 3e 0f fc 8d bc
       0.21781376 -0.067332506 0.405351 -0.017332105
0002c0 c7 44 af 3e 49 2e 8c bd a5 82 38 3e cc ef ef be
       0.3423216 -0.06844766 0.18018587 -0.46862638
0002d0 16 e1 3a be 6a 20 ad 3e a3 31 6a 3d ad ff c1 3e
       -0.18249926 0.33813792 0.057176244 0.37890378
0002e0 43 ec e5 3e bc f3 4d 3d e2 1f 8f 3d 75 fd 60 3e
       0.44906816 0.05028127 0.06988503 0.21971686
0002f0 80 6d 0a 3e 07 f3 f1 3e 88 fc 3c 3e 9c c6 fe 3e
       0.13518333 0.47255728 0.18455708 0.49760902
000300 4f 54 e6 be d4 69 83 3d a2 d1 98 be c9 f9 ef bc
       -0.44986197 0.064166695 -0.29847437 -0.029293912
000310 79 4f 2c 3f 70 2c 80 3d 54 60 61 3e 85 35 fa 3d
       0.67308766 0.06258476 0.22009403 0.12217239
000320 c8 7a 32 bd 87 65 2f 3e fc 1e b2 be 2c e0 0d bd
       -0.043574125 0.17128573 -0.34789264 -0.034637615
000330 d8 ec b8 3d 39 80 f6 3e 27 75 51 bd 73 7c 1c 3f
       0.09029549 0.481447 -0.051137116 0.61127394
000340 b7 d1 ae 3e 61 b2 7c bd c8 13 ea 3d 7b 95 09 be
       0.34144375 -0.061693553 0.11429554 -0.13435929
000350 e3 bf ce bd e6 f4 69 be 16 f1 b6 3c 82 88 a8 3e
       -0.10095193 -0.22847328 0.022331756 0.32916647
000360 39 f7 91 3e 9f 5e 26 be a8 b8 49 3d 5f bd 5e 3e
       0.28508928 -0.16247033 0.049248368 0.21751927
000370 d2 06 2a 3e 37 76 1f 3e 0e de 24 3e c9 95 68 3e
       0.16604164 0.15572439 0.16100332 0.22713389
000380 92 1f e8 3e 42 56 41 3e 19 16 5a 3e 32 dc b2 3e
       0.45336586 0.18880561 0.21297492 0.3493362
000390 af f5 b8 3c 5c 52 e5 3e 90 29 a9 bd 5e 2f 5f bd
       0.022578089 0.44789398 -0.082598805 -0.054488532
0003a0 21 a8 93 3e bd 4f a3 3d 88 0e be bd fa 98 c4 3e
       0.2883921 0.07974193 -0.09280115 0.38397962
0003b0 51 69 11 3f ce 81 db 3d eb 44 03 3e 79 bd 65 3e
       0.56801325 0.10718118 0.12819259 0.2243556
0003c0 ce 4b d6 3d 40 bc 49 3e e3 c5 d6 3d 4b 31 43 be
       0.10463677 0.19700718 0.10486963 -0.19061773
0003d0 24 8c fb 3c 55 fb 19 be ce f9 61 3d e6 c8 f3 3e
       0.030706473 -0.15037282 0.055169873 0.4761421
0003e0 40 00 a6 3e 7e 3a 66 3e b9 ee a1 bb 5a db 47 3e
       0.32422066 0.2248325 -0.004941788 0.1951727
0003f0 d1 a3 b6 3d 3e a2 cc 3e 3c c8 21 bd f0 68 4a 3c
       0.08917964 0.3996753 -0.0394976 0.012354121

l1.bias f4 [8]
000000 62 b6 53 3f df ca ff 3e e2 99 b3 bd a1 f7 ef 3e
       0.8270017 0.49959466 -0.08769585 0.46868613
000010 28 b4 c5 3e 1e 4e 12 be e8 29 4d 3f cc 9e 02 3f
       0.3861401 -0.14287612 0.8014207 0.51023555

l2.weight f4 [8, 8]
000000 ca 6d 3b 3f ea e1 90 3d e8 80 09 be a4 56 79 3f
       0.732144 0.0707434 -0.1342808 0.9739783
000010 42 41 c0 3b 98 fc b8 bd 79 64 60 bf 38 37 11 3e
       0.0058671543 -0.090325534 -0.8765331 0.1418122
000020 d5 a4 a3 3f b0 70 92 3f a0 d0 12 be a2 07 3a bf
       1.2784678 1.144064 -0.14337397 -0.72667897
000030 a6 b7 86 3e b3 19 1e be 80 6a 21 3e 0f 5a 3d bf
       0.26311988 -0.15439491 0.15763283 -0.73965544
000040 82 f6 ab 3e de 5a 09 3f 0a f4 95 3e 99 07 b0 3e
       0.33586508 0.5365428 0.2928775 0.34380797
000050 c1 59 24 3f 75 c4 69 be 69 41 bc 3f 5c f3 db 3e
       0.64199454 -0.22828849 1.4707462 0.42959106
000060 54 0c 0d be ed 17 26 3d 9b 22 97 be 1d 6f 8c be
       -0.13774234 0.04055016 -0.2951859 -0.27428523
000070 8a a4 b2 3d c0 e6 d9 bd 3c 01 89 bc 9c 6a 2e 3e
       0.087227896 -0.10639715 -0.016724221 0.17032856
000080 f5 a6 03 3e 9d d8 fb 3e c4 70 ac bd 58 c9 19 3f
       0.12856658 0.491887 -0.08419946 0.6007285
000090 c7 6c 60 3f 4e 21 03 3e fe ce 74 bf a8 c6 e8 be
       0.8766598 0.12805673 -0.95628345 -0.45464063
0000a0 47 6d 18 3f 7d 6f 75 bf e6 93 e7 bd e4 d5 9b 3f
       0.59541744 -0.9587324 -0.11307506 1.2174649
0000b0 2d 31 63 3e 81 bf a6 be a3 8e b5 3e c1 21 ad 3f
       0.22186728 -0.3256798 0.35460386 1.3525926
0000c0 20 61 04 3c 56 f6 32 3e 8d e6 ae 3e b8 f8 1a bd
       0.008079797 0.17476782 0.3416027 -0.037834853
0000d0 da e7 e6 bd f0 ac da bc a4 f1 1c be fd 5d 86 be
       -0.11274691 -0.026693791 -0.15326554 -0.26243582
0000e0 63 4d 25 3f d5 4e 23 bf 1e 96 95 3e c4 7c 70 3f
       0.6457121 -0.63792163 0.29216093 0.9394038
0000f0 2f 94 ee be 56 dc 4e be 38 e3 55 bf fd 37 f6 3e
       -0.4659743 -0.20201239 -0.83549833 0.4808959

l2.bias f4 [8]
000000 f9 df e9 bc e4 34 7f 3e aa e6 9c 3e 3b 22 1c be
       -0.028549181 0.2492252 0.30644733 -0.15247433
000010 67 5a cb bd 91 29 05 3f 95 c0 a8 be 7e 36 3b bd
       -0.09929352 0.5201655 -0.32959428 -0.045706265

l3.weight f4 [7, 8]
000000 87 ab 9b bf d3 55 95 bf b1 db 5e 3f 9d c1 7f be
       -1.2161721 -1.1666816 0.8705397 -0.24976201
000010 08 4a 30 bf 22 5b 8b 3f 00 c3 aa 3b cb 58 81 bf
       -0.6886296 1.0887187 0.005211234 -1.0105222
000020 de 62 a7 bf 32 04 93 3f 0a ce 5f 3f 2b 72 18 be
       -1.3077047 1.1485655 0.87423766 -0.14887302
000030 72 42 a0 bf 0f d3 5c bf 5a b9 40 3e 57 57 97 be
       -1.2520278 -0.8625955 0.18820706 -0.29558823
000040 12 36 a4 be 68 91 02 3d b1 e5 1b 3d 2a c4 61 3e
       -0.32072502 0.03187695 0.038060848 0.22047487
000050 67 0f 44 be dc 2f d4 bd 36 68 18 3e 70 c9 87 be
       -0.191465 -0.10360691 0.14883503 -0.26520872
000060 11 94 3a be b2 41 1e bd 36 b1 f0 bc b8 48 9c bd
       -0.18220545 -0.03863687 -0.029381376 -0.076310575
000070 b3 ac 6d 3e e2 bb 15 be 5c 7b 96 3d 82 7e 93 be
       0.23210411 -0.14622453 0.07347748 -0.28807455
000080 b7 90 fc bc 6a 95 cb be 1f db f9 bc c8 8a 7a bd
       -0.030830724 -0.3976243 -0.030499993 -0.06116751
000090 29 25 3c 3e 71 92 6f bb ab 41 a3 3e de 0e e0 3d
       0.1837355 -0.0036555792 0.31886038 0.10940336
0000a0 52 e2 00 be 51 ac 9f be ec dd 35 be e0 74 97 bd
       -0.12586334 -0.31186154 -0.17760438 -0.07395339
0000b0 52 96 50 3e 4a df 12 3d 51 29 8c be 19 c8 e7 3d
       0.20369843 0.035857476 -0.27375272 0.113174625
0000c0 68 2c 3b 3f a8 cd 1f bf 73 dd 08 bf 67 c0 84 be
       0.73114634 -0.6242318 -0.53462905 -0.2592804
0000d0 a2 3b 9f be 19 e4 0a 3f a2 bc 2a 3e eb cf 42 3f
       -0.31100184 0.542543 0.1667352 0.7609851

l3.bias f4 [7]
000000 8e 6d 95 3f 6e 4c 04 3f f6 38 8b be b6 20 96 be
       1.1674058 0.5167912 -0.27191895 -0.2932183
000010 ff 2a c7 be d0 27 60 be c3 c0 13 be
       -0.3889999 -0.21890187 -0.14429002
